model/mode.pth (torch, 16781 bytes, 4 tensors)

linear1.weight f4 [256, 11]
0	0xbcf19b51	-0.029493006
1	0x3e88596b	0.2663072
2	0xbe24b11b	-0.16083185
3	0xbdb2ebf3	-0.0873641
4	0xbed14935	-0.40876165
5	0x3e22ed4d	0.15910836
6	0xbedf179a	-0.43572694
7	0xbec2fd26	-0.38083762
8	0xbe9adae2	-0.3024512
9	0x3e8eb99a	0.27875978
10	0xbe316967	-0.17325364
11	0x3e6e95c3	0.23299317
12	0xbef73ea9	-0.48289993
13	0x3ec06b16	0.375817
14	0xbe00d274	-0.12580281
15	0x3ccd5c61	0.025068464
16	0x3df5c866	0.120011136
17	0xbedbd287	-0.42934057
18	0xbe74d5fe	-0.23909757
19	0x3d2e844d	0.04260664
20	0x3e5f72af	0.21821092
21	0xbeaa1805	-0.3322145
22	0x3bc5d847	0.006037745
23	0xbda0d849	-0.07853753
24	0x3e628e60	0.22124624
25	0xbea83388	-0.32851815
26	0x3de15fb3	0.11004581
27	0xbd02c15a	-0.031922676
28	0xbed160cb	-0.4089416
29	0x3ec4a5ad	0.3840765
30	0x3c4bc3af	0.012436791
31	0x3e01e0e6	0.12683448
32	0x3f08288b	0.53186864
33	0x3ebf4abe	0.3736171
34	0x3f2f5a4f	0.68497175
35	0xbe9fed36	-0.31235665
36	0x3e43bcb8	0.19114959
37	0x3e0acfe6	0.1355587
38	0x3ea1e049	0.31616428
39	0xbe9b15d5	-0.30290094
40	0x3e2f3282	0.17109111
41	0xbdc2f1b2	-0.09518756
42	0xbdc715a3	-0.09720924
43	0x3ed35a7b	0.4127997
44	0x3d9a6020	0.07537866
45	0xbecfe62d	-0.40605298
46	0xbe177474	-0.14790517
47	0xbe85bb92	-0.26119667
48	0x3dff527c	0.124669045
49	0xbe974d55	-0.29551187
50	0x3eded35e	0.43520635
51	0xbee50c1c	-0.447358
52	0x3af48a15	0.0018656874
53	0x3e0bfb3b	0.13670056
54	0xbee13d7f	-0.4399223
55	0x3ebedc9e	0.37277693
56	0xbe06c9cc	-0.13162917
57	0x3cb22c21	0.021749558
58	0xbd86d444	-0.06583455
59	0xbee3676e	-0.44414848
60	0xbf09f1ca	-0.53884566
61	0x3e04f280	0.12983131
62	0x3d84d926	0.0648673
63	0xbe974cb1	-0.29550698
64	0x3ea83025	0.3284923
65	0xbd6a694d	-0.05722933
66	0xbef7b9e3	-0.48384008
67	0xbe38895e	-0.18021151
68	0xbe081995	-0.13291009
69	0xbdbd3724	-0.09239033
70	0x3e5126e8	0.20424998
71	0x3e0745b7	0.13210188
72	0x3da3ffe4	0.08007792
73	0x3e01f8d6	0.1269258
74	0x3da0b2c5	0.078465976
75	0x3e9fd1f8	0.3121488
76	0x3e8d2719	0.27568892
77	0xbeb9bef8	-0.3627851
78	0x3e63538f	0.22199844
79	0x3e2a3dd4	0.16625148
80	0x3e672d3e	0.22575852
81	0x3e77ca5d	0.24198289
82	0x3e94f6c6	0.29094523
83	0x3e29aae2	0.16569093
84	0xbe4dc587	-0.20094882
85	0xbe8f971e	-0.2804498
86	0x3d5ab8f5	0.053399045
87	0xbe83287d	-0.25616828
88	0x3eb54ce0	0.35410213
89	0xbefa3744	-0.4887029
90	0x3e80e206	0.25172442
91	0x3dc87d5e	0.09789537
92	0x3e0f7816	0.14010653
93	0xbf0181b2	-0.50588524
94	0xbe2fd8b2	-0.17172506
95	0xbea308b8	-0.3184259
96	0xbec23e3e	-0.37938112
97	0x3e12a4e0	0.14320707
98	0x3eb1e6ab	0.34746298
99	0xbe3ee1e2	-0.18640855
100	0xbe0c35b6	-0.13692364
101	0xbd753490	-0.05986458
102	0xbf2dc42d	-0.67877465
103	0xbef40a58	-0.47664142
104	0x3ec60062	0.38672167
105	0x3ebc2300	0.36745453
106	0xbed3c422	-0.41360575
107	0xbeec6cb7	-0.46176693
108	0x3f1a87da	0.60363543
109	0x3f20f38e	0.62871635
110	0xbdc23084	-0.0948191
111	0xbea7ee61	-0.32799056
112	0x3ee68788	0.45025277
113	0xbe7dcf0c	-0.24786013
114	0x3e9bd47e	0.30435556
115	0xbe3f0ded	-0.18657656
116	0x3e81605c	0.2526883
117	0x3e84024d	0.25783005
118	0xbe8460ab	-0.25855002
119	0x3e84e632	0.25956875
120	0x3e743b0c	0.2385065
121	0xbe895ad1	-0.268271
122	0x3e7d4ffd	0.24737544
123	0x3ede2585	0.43388
124	0xbe43685b	-0.19082777
125	0x3eaa89d0	0.33308268
126	0x3d2cb4e8	0.042164713
127	0x3da62cb0	0.08113992
128	0x3e985fd9	0.29760626
129	0xbce13373	-0.027490353
130	0x3ea12671	0.3147464
131	0x3f0e49c3	0.555813
132	0xbbfc7913	-0.007704863
133	0x3e880434	0.26565707
134	0xbe899e54	-0.26878607
135	0x3e38067b	0.17971222
136	0x3e9fe920	0.31232548
137	0xbeb0aa77	-0.34505054
138	0xbd9d5864	-0.07682875
139	0xbec4b36d	-0.3841814
140	0xbea82e66	-0.328479
141	0x3e530bc8	0.20609963
142	0x3e5464c1	0.2074156
143	0xbd21ba1f	-0.03948414
144	0xbe09fbda	-0.1347498
145	0x3e6aab97	0.22917019
146	0xbe826d21	-0.25473884
147	0xbf26d53c	-0.6516912
148	0x3e3e0f5c	0.18560547
149	0xbebb29cd	-0.3655533
150	0xbeec09bf	-0.46101186
151	0xbe81f7a3	-0.25384244
152	0x3efbb05c	0.4915799
153	0xbf0104b7	-0.5039782
154	0x3eac1d7b	0.33616242
155	0x3eb51c4c	0.3537315
156	0x3e983c6d	0.297336
157	0xbe0925a0	-0.13393259
158	0x3e5a3f74	0.21313268
159	0xbe48d3ba	-0.19612017
160	0xbe8730d1	-0.2640443
161	0x3ebb47c8	0.36578202
162	0x3ecce60d	0.40019265
163	0x3eb730cf	0.35779426
164	0x3ec709d9	0.388747
165	0x3d4ce4f9	0.050023053
166	0xbdab6892	-0.083695546
167	0xbe5048fe	-0.20340344
168	0xbdad40cc	-0.08459625
169	0x3f0af5d3	0.5428135
170	0xbe698676	-0.22805199
171	0xbebb19a4	-0.36543
172	0x3e8977b2	0.26849133
173	0xbe8b8354	-0.27248633
174	0x3eedaf06	0.46422595
175	0xbe79e096	-0.24402079
176	0xbdb91cde	-0.09038709
177	0xbe876b03	-0.2644883
178	0x3e2f7187	0.17133151
179	0x3e722b01	0.23649217
180	0xbe26d6fb	-0.16292946
181	0x3e3acf0c	0.18243045
182	0xbe2677b1	-0.16256596
183	0xbe8eb304	-0.27870953
184	0x3deae764	0.114699155
185	0xbe86dd0a	-0.26340514
186	0xbe519af3	-0.20469265
187	0xbe31c376	-0.17359719
188	0x3e4b3c07	0.19847117
189	0xbd63dfc7	-0.055633333
190	0xbea0f55b	-0.3143719
191	0xbe86fca9	-0.2636464
192	0x3e4bceb8	0.19903076
193	0x3e7634f0	0.24043632
194	0x3ea9f1f9	0.33192423
195	0x3eb60a1d	0.3555459
196	0xbd3edd54	-0.046597794
197	0xbefb0552	-0.49027497
198	0x3f08ccf2	0.5343772
199	0xbeb18ede	-0.34679312
200	0xbdb0b5a1	-0.08628393
201	0xbe666eee	-0.22503254
202	0x3e3859c9	0.18003
203	0x3dd233d9	0.102637954
204	0x3e95b7bf	0.2924175
205	0xbd92e680	-0.07172871
206	0x3e6f84cd	0.23390503
207	0xbe4b59cd	-0.19858475
208	0x3daaa9bb	0.08333155
209	0xbf11943b	-0.56866807
210	0xbd4a6482	-0.049412258
211	0x3e736e7b	0.23772614
212	0xbdda7681	-0.10667134
213	0x3e56c9b5	0.20975383
214	0x3ec3244a	0.38113624
215	0xbec05fee	-0.3757319
216	0xbf058fb2	-0.52172387
217	0x3deea0bd	0.11651752
218	0x3e7c899a	0.24661866
219	0xbef6d9eb	-0.48213133
220	0xbe579a21	-0.2105489
221	0x3eec732d	0.46181622
222	0xbd27d97b	-0.04097889
223	0x3ea649ad	0.32478085
224	0x3dff2535	0.124582686
225	0xbd1dd49f	-0.03853285
226	0x3db36e2c	0.08761248
227	0x3d263792	0.04058034
228	0x3e4db725	0.20089395
229	0xbed28c53	-0.41122684
230	0xbec43198	-0.38319087
231	0x3e2fa4e9	0.17152752
232	0x3e901a81	0.2814522
233	0x3d81177e	0.06303309
234	0xbb291e9d	-0.00258056
235	0x3dfa214f	0.12213384
236	0x3d863e8b	0.06554898
237	0xbc6cb3b3	-0.0144471405
238	0xbd4b28c7	-0.049599435
239	0xbdce6b96	-0.10079114
240	0xbd582ad1	-0.052775208
241	0x3e9f4c2c	0.31112802
242	0xbd4dd6eb	-0.05025379
243	0xbeb60e73	-0.355579
244	0xbe6c3705	-0.23067863
245	0xbedd10bd	-0.43176833
246	0x3e8667c3	0.2625104
247	0x3d682aac	0.05668132
248	0xbe3b390b	-0.18283479
249	0xbe006cd2	-0.12541512
250	0x3e91f9f7	0.2851102
251	0xbf0b0fd0	-0.54321
252	0xbefa7fc1	-0.48925593
253	0x3e4b02a5	0.19825228
254	0xbe369fb2	-0.17834356
255	0xbed56ca4	-0.4168445

linear1.bias f4 [256]
0	0x3dc25b25	0.09490041
1	0x3e0b079d	0.13577123
2	0xbd5fb59e	-0.054616563
3	0xbe603c01	-0.2189789
4	0x3d9ae604	0.07563403
5	0xbb0d57fb	-0.0021567333
6	0xbe74198e	-0.23837873
7	0x3e86de90	0.26341677
8	0x3e68d80d	0.22738667
9	0x3d3c0e65	0.045912165
10	0xbdd6ee12	-0.10494627
11	0xbe1a0cb6	-0.15043911
12	0xbb4f75e6	-0.0031655966
13	0x3e440ba5	0.19145067
14	0xbe4b97eb	-0.19882171
15	0xbe656c47	-0.22404586
16	0xbd146563	-0.036229502
17	0xbdb17218	-0.0866434
18	0x3d59009c	0.052979097
19	0x3e1de504	0.15419394
20	0x3e67bf0b	0.22631471
21	0xbcb05470	-0.021524638
22	0x3e35c829	0.17752136
23	0xbe1546c5	-0.14577778
24	0x3ca0900d	0.019599939
25	0xbdfa4e4e	-0.12221967
26	0x3ed3e5dc	0.41386306
27	0xbe634324	-0.22193581
28	0xbe6b86cd	-0.23000641
29	0x3dc376c3	0.095441364
30	0xbe0d36f2	-0.13790491
31	0x3ed6a673	0.41923866
32	0xbe1ec6dc	-0.15505546
33	0xbda68a7c	-0.081318825
34	0xbea35238	-0.31898665
35	0xbe8e3e0c	-0.27781713
36	0xbd4af252	-0.0495475
37	0x3d080a47	0.033212926
38	0x3e206386	0.15662965
39	0x3edd4f55	0.43224588
40	0xbe6a6963	-0.22891764
41	0xbdb29115	-0.087190785
42	0x3eaa32a6	0.33241767
43	0xbd033ef4	-0.03204246
44	0x3e07401e	0.13208053
45	0xbe63c02d	-0.22241278
46	0x3e3ed546	0.18636045
47	0xbe5b2028	-0.21398985
48	0x3b0e3f61	0.0021705257
49	0x3e22d426	0.1590124
50	0x3ee66b43	0.4500371
51	0x3ea32624	0.31865036
52	0xbd83c2da	-0.06433649
53	0x3e7ac2bb	0.24488346
54	0x3ba0c3db	0.0049061603
55	0x3e791eec	0.24328202
56	0x3e5bfd27	0.21483289
57	0x3aef2e85	0.0018248117
58	0x3ea36118	0.31910014
59	0xbd06c2b7	-0.03290054
60	0xbe9a5624	-0.30143845
61	0x3d98f870	0.07469261
62	0xbecbf9d0	-0.3983903
63	0xbe6ba2ca	-0.23011318
64	0xbd9c54f6	-0.076333925
65	0xbd9aa14a	-0.07550295
66	0xbd6c7387	-0.057727363
67	0xbe728b32	-0.23685911
68	0xbc9a2e8e	-0.018821027
69	0xbe1fb193	-0.15595083
70	0xbdd1c81d	-0.10243247
71	0xbe1f21d0	-0.15540242
72	0x3de94991	0.11390985
73	0x3cfb3385	0.030664215
74	0x3d82de06	0.06390004
75	0xbdda38e4	-0.10655382
76	0xbea50973	-0.32233772
77	0x3cdb2a58	0.02675359
78	0xbe934e0b	-0.2877048
79	0xbe760586	-0.24025545
80	0xbe17a7d3	-0.14810114
81	0xbe93199e	-0.28730482
82	0xbe0d5423	-0.13801627
83	0xbe454a7c	-0.19266695
84	0xbdbf1e7e	-0.09331988
85	0xbcb30b83	-0.021856075
86	0xbe297fb8	-0.16552627
87	0xbda00d40	-0.07815027
88	0xbc987267	-0.018609239
89	0xbea7f226	-0.32801932
90	0xbe933c5f	-0.28756997
91	0xbd1aa3fc	-0.037754044
92	0xbe1f0361	-0.15528633
93	0xbe7b75b7	-0.24556623
94	0x3d80944a	0.06278284
95	0xbe364839	-0.17800988
96	0xbd6dff72	-0.05810494
97	0x3bcf139c	0.0063194763
98	0x3e1ad59f	0.15120552
99	0xbde05b32	-0.10954894
100	0x3db87b8b	0.09007939
101	0xbe021b75	-0.12705787
102	0xbe3e5195	-0.18585809
103	0xbc9beb89	-0.01903321
104	0xbdcb9d8e	-0.099421605
105	0xbe73318f	-0.23749374
106	0xbe3ebe4e	-0.18627283
107	0xbe08d2a6	-0.13361606
108	0xbcb9061f	-0.022585927
109	0xbe0fa207	-0.14026652
110	0x3e2e958f	0.1704924
111	0xbe83b1ec	-0.2572168
112	0xbd68dec6	-0.05685308
113	0xbdd9e7ee	-0.1063994
114	0xbe4b02d3	-0.19825296
115	0x3d9f59e8	0.0778082
116	0x3e7eb161	0.24872352
117	0xbe44e43d	-0.19227691
118	0xbe48e366	-0.19617996
119	0xbe40b885	-0.18820389
120	0x3c281d16	0.010260841
121	0xbd0f8451	-0.035038296
122	0x3dfd6a9a	0.12373848
123	0x3e12d8d7	0.1434053
124	0x3e5fc598	0.2185272
125	0xbe43ab82	-0.19108394
126	0xbdc144af	-0.094369285
127	0xbe0be180	-0.1366024
128	0xbdf15572	-0.117838755
129	0xbdcff008	-0.10153204
130	0xbe0bdd7d	-0.1365871
131	0x3e72af9c	0.23699802
132	0xbe1cbe38	-0.15306938
133	0x3ef65377	0.48110554
134	0xbdccb2ca	-0.09995039
135	0x3cb3f50c	0.021967433
136	0xbe7731e2	-0.24140123
137	0xbeb45580	-0.3522148
138	0x3e27e51e	0.16395995
139	0x3d566b23	0.052348267
140	0x3e7a6b84	0.24455076
141	0x3e475605	0.19466408
142	0xbd4a702d	-0.049423385
143	0x3e59660b	0.21230333
144	0xbd7e7c29	-0.062130127
145	0xbe3b54b2	-0.18294027
146	0x3dcff8e9	0.10154898
147	0xbea5a120	-0.3234949
148	0xbe2b79d8	-0.16745698
149	0x3e2d204e	0.16906855
150	0xbe42ae61	-0.19011833
151	0xbe947893	-0.2899824
152	0xbec22d8d	-0.37925377
153	0xbd6604aa	-0.05615679
154	0xbe706554	-0.23476154
155	0xbecba258	-0.39772296
156	0x3e7b67af	0.24551271
157	0xbea5ed58	-0.3240764
158	0x3e6ff8a9	0.234347
159	0x3ed32151	0.41236356
160	0x3ed3472f	0.41265246
161	0xbe82d7a7	-0.25555155
162	0x3e3368f2	0.17520502
163	0x3e542f16	0.20721087
164	0xbd83ead1	-0.06441272
165	0x3e56873b	0.20950024
166	0x3d029d2b	0.03188817
167	0x3e260e3b	0.16216366
168	0x3d653df3	0.055967283
169	0x3d58687b	0.052834015
170	0x3e475a5c	0.19468063
171	0x3d32e28a	0.043673076
172	0xbec15fc6	-0.37768382
173	0xbe957dbc	-0.2919749
174	0xbe764e51	-0.24053313
175	0xbde728c0	-0.11287069
176	0xbcad617b	-0.021164646
177	0x3cb2f09e	0.02184325
178	0xbd060c08	-0.032726318
179	0xbe80e6b3	-0.2517601
180	0xbe130171	-0.14356019
181	0xbd9ea5c0	-0.07746458
182	0xbe93f1c6	-0.28895396
183	0x3db7b24a	0.08969553
184	0xbd9a32f3	-0.07529249
185	0x3db35290	0.08755982
186	0xbe9cf91b	-0.30658802
187	0xbdc8f98a	-0.09813221
188	0x3e51be87	0.20482837
189	0xbe1b1df0	-0.15148139
190	0xbdc7f5f4	-0.09763709
191	0xbccab768	-0.024745658
192	0xbe002649	-0.12514605
193	0x3d539a2a	0.051660694
194	0x3e84e4ba	0.25955755
195	0x3e5b6c38	0.21428001
196	0xbe2f0c20	-0.17094469
197	0xbe6c94d3	-0.23103647
198	0x3d1e0026	0.03857436
199	0xbe138eed	-0.1440999
200	0x3ef80532	0.48441464
201	0xbdfe9117	-0.124300174
202	0xbe8824c2	-0.26590544
203	0xbd7de4cb	-0.061985772
204	0xbdabe0d4	-0.08392492
205	0xbe0a5101	-0.13507463
206	0x3d7ca480	0.061680317
207	0x3d12b87a	0.03582046
208	0xbccfdbbd	-0.025373334
209	0xbcf42ffa	-0.029808033
210	0xbda35281	-0.07974721
211	0xbdb06011	-0.08612073
212	0x3e05dc6c	0.13072366
213	0xbe0fdf35	-0.1404999
214	0xbea6f229	-0.3260663
215	0xbe74c45a	-0.23903027
216	0x3e1d0f79	0.15337934
217	0xbe92ac52	-0.28647095
218	0xbe1eca74	-0.15506917
219	0xbe377cd0	-0.17918706
220	0x3e43a8d9	0.19107379
221	0xbda336b6	-0.0796942
222	0xbe61bc48	-0.2204448
223	0xbea05ebc	-0.31322277
224	0x3e37f3bb	0.1796407
225	0xbe24855b	-0.16066496
226	0x3d368342	0.04455877
227	0xbe566a8e	-0.20939085
228	0x3c9ee250	0.019395024
229	0x3d2143c1	0.039371256
230	0xbe571fd4	-0.21008235
231	0xbe5502a7	-0.20801793
232	0x3d0ef86d	0.034904886
233	0xbd978617	-0.073986225
234	0xbd0ca2ba	-0.034334876
235	0xbea883bf	-0.32913014
236	0x3db6643d	0.08905838
237	0x3d2d4813	0.042305063
238	0x3ceba62d	0.028765762
239	0x3d9a483d	0.075333096
240	0x3e5cf5c2	0.21578124
241	0xbe440d51	-0.19145705
242	0x3dfef3c1	0.12448836
243	0xbe03ac69	-0.12858738
244	0x3dae83bc	0.0852122
245	0x3e805dc2	0.25071532
246	0xbd4317b2	-0.04763002
247	0xbe6747e0	-0.22586012
248	0xbd0a7157	-0.033799496
249	0xbe093291	-0.13398196
250	0xbe9f67a6	-0.31133765
251	0x3ec1625c	0.37770355
252	0x3bebfb87	0.0072016153
253	0x3e0098d5	0.12558301
254	0xbe40cdaa	-0.18828455
255	0x3e70417f	0.23462485

linear2.weight f4 [3, 256]
0	0x3e9fb5e2	0.31193453
1	0x3e429da2	0.19005445
2	0xbe6697e9	-0.22518887
3	0xbe2d08c7	-0.1689788
4	0xbe003d38	-0.12523353
5	0xbdea2fd1	-0.114349015
6	0xbdb3a90c	-0.087724775
7	0x3e4ddb13	0.20103101
8	0xbe1a48c2	-0.15066817
9	0x3f1ec836	0.6202425
10	0xbde8296b	-0.11336025
11	0xbe31f16d	-0.17377253
12	0xbd860e39	-0.065456815
13	0x3ec49825	0.38397327
14	0xbe42b5b3	-0.19014625
15	0xbf0a7d2d	-0.54097253
16	0xbe0f8d1b	-0.14018671
17	0xbed17915	-0.4091269
18	0x3e05948e	0.1304495
19	0x3eaad056	0.33362073
20	0x3e8e0c79	0.2774389
21	0xbd0c0156	-0.03418096
22	0x3ee3324f	0.4437432
23	0xbec1cf6e	-0.3785357
24	0x3de0976b	0.10966381
25	0xbe25cfe0	-0.1619258
26	0x3e8fd485	0.28091827
27	0xbd689894	-0.056786135
28	0xbe85d966	-0.26142424
29	0xbdbf878f	-0.093520276
30	0xbd8ca37c	-0.0686712
31	0x3ed60fcd	0.4180893
32	0xbddb6829	-0.10713226
33	0xbe2a535f	-0.16633366
34	0xbda74f9d	-0.08169482
35	0x3e65b0ef	0.22430776
36	0xbeacfd64	-0.33787072
37	0x3edcfb48	0.43160462
38	0x3f36b12f	0.7136411
39	0x3edca265	0.43092647
40	0x3e9465a3	0.28983793
41	0xbd069bdc	-0.032863483
42	0x3eeedc39	0.46652392
43	0x3de39286	0.111119315
44	0xbf0d381f	-0.5516376
45	0xbe861308	-0.26186395
46	0x3ead5532	0.3385406
47	0xbe02096a	-0.12698904
48	0xbc97c566	-0.018526744
49	0x3ced46b8	0.028964385
50	0x3e3d08fc	0.18460459
51	0x3eadbb09	0.3393176
52	0xbecee57d	-0.4040946
53	0x3edb9005	0.42883316
54	0xbca18e02	-0.019721035
55	0x3efedb5f	0.49776742
56	0x3eb6aeaf	0.35680148
57	0xbda80dc6	-0.08205752
58	0x3e9037e7	0.2816765
59	0xbf0e0fbd	-0.55492765
60	0xbd4b2e37	-0.04960462
61	0xbde0b8d8	-0.10972756
62	0xbd8cffaa	-0.068847016
63	0xbef63a29	-0.48091248
64	0xbebcf6eb	-0.36907133
65	0xbd03f23d	-0.03221344
66	0x3eb59a15	0.35469118
67	0xbef3a39c	-0.47585762
68	0x3c1e7c5e	0.009673206
69	0xbe32e6e4	-0.1747089
70	0xbdc1e6f3	-0.09467878
71	0x3ea2b84e	0.31781238
72	0xbe20328f	-0.15644287
73	0xbed9534a	-0.42446357
74	0x3d664e7d	0.056227196
75	0x3dc10257	0.094242744
76	0xbcfd6575	-0.030932168
77	0x3d4f00a2	0.050537713
78	0x3cda8fc1	0.026679875
79	0x3c36d394	0.011158843
80	0x3af29b8a	0.0018509489
81	0x3e706f67	0.23479997
82	0xbf15fb4d	-0.5858658
83	0x3e17f1b6	0.14838299
84	0xbe362efb	-0.17791359
85	0xbea303c6	-0.31838816
86	0x3d3ef74b	0.046622556
87	0xbea2c3e5	-0.3179008
88	0xbdc77629	-0.09739334
89	0xbccaac95	-0.024740497
90	0xbe8a6a8a	-0.27034408
91	0xbe1a4205	-0.15064247
92	0xbdfb674a	-0.1227556
93	0x3dfa3f68	0.12219125
94	0x3d59e98f	0.053201254
95	0xbdf8c35e	-0.12146638
96	0x3e9eecd3	0.31040058
97	0xbc96bab2	-0.01839957
98	0x3e9d6b81	0.3074608
99	0xbe12df68	-0.14343035
100	0xbe6eb65b	-0.2331175
101	0xbe68aa6d	-0.22721262
102	0xbf148516	-0.58015573
103	0xbe0f0381	-0.1396618
104	0xbd971fa3	-0.07379081
105	0xbe218a00	-0.15775299
106	0xba4e95a6	-0.0007880576
107	0xbe3946ce	-0.18093416
108	0xbdd8f59d	-0.10593722
109	0xbd34cc6b	-0.04414026
110	0x3ce899e3	0.028393691
111	0xbdfc0bb9	-0.123069234
112	0xbd1402ff	-0.03613567
113	0xbe2b6871	-0.1673906
114	0x3de4f2d8	0.11179131
115	0xbcf5ad28	-0.029989794
116	0x3d83c03f	0.064331524
117	0xbec3b075	-0.38220564
118	0x3bd1b000	0.0063991547
119	0xbdddc3f0	-0.10828388
120	0xbe70b4d8	-0.23506486
121	0x3e1a7b46	0.15086088
122	0xbde9f1a2	-0.11423041
123	0x3e3f158f	0.18660568
124	0x3e97a778	0.29619956
125	0x3dc1b125	0.09457616
126	0xbed2e791	-0.41192296
127	0x3e912eb9	0.2835596
128	0xbdee743a	-0.11643262
129	0x3cd16c4e	0.025564339
130	0xbdce2da8	-0.10067302
131	0x3e82d940	0.25556374
132	0xbe904edd	-0.28185168
133	0x3e5957aa	0.21224847
134	0xbd870222	-0.06592204
135	0x3ed1daa0	0.4098711
136	0x3cbe32c4	0.023217566
137	0x3c238bd6	0.00998207
138	0x3e08a765	0.13345106
139	0x3e59aafa	0.21256629
140	0x3ec5dfbb	0.38647255
141	0x3e906164	0.28199303
142	0x3e9be26f	0.30446193
143	0x3eb66dd8	0.3563068
144	0xbe0ebc4b	-0.13939016
145	0xbeb9353c	-0.36173427
146	0xbdb18872	-0.08668603
147	0xbc62edeb	-0.013850669
148	0xbe35e461	-0.17762901
149	0x3e374295	0.17896493
150	0x3eb37589	0.3505061
151	0x3d5cd9bb	0.05391858
152	0xbe027d6d	-0.12743159
153	0xbd05f1e3	-0.032701384
154	0xbe1c232d	-0.15247793
155	0x3c84f286	0.016228925
156	0x3e5522e7	0.20814095
157	0xbcb3900f	-0.021919278
158	0x3e3eaa33	0.18619613
159	0x3e5720cb	0.21008603
160	0x3df1dbc3	0.11809494
161	0xbf1aaa10	-0.60415745
162	0x3e14b834	0.14523393
163	0x3dfad17e	0.12246989
164	0x3f0b7256	0.5447134
165	0x3e0af226	0.13568935
166	0xbe02684c	-0.12735099
167	0x3ee3fc9f	0.44528672
168	0xbefd4fa3	-0.4947482
169	0xbe148153	-0.14502458
170	0x3de799af	0.1130861
171	0xbd25072a	-0.040290035
172	0x3dc7dd63	0.09759023
173	0xbd9ed651	-0.07755721
174	0xbea090b8	-0.31360412
175	0xbda6b5b6	-0.08140127
176	0xbe449142	-0.19196036
177	0xbe2bfbc9	-0.16795267
178	0xbde1e3ac	-0.11029753
179	0xbe872bdc	-0.2640065
180	0xbdd8b759	-0.10581846
181	0xbe9b7cbd	-0.30368605
182	0xbd7e74ad	-0.06212299
183	0x3e67a5f6	0.22621903
184	0xbe7d5207	-0.24738322
185	0x3f06c274	0.5264046
186	0xbe2d0a7a	-0.16898528
187	0xbdbcd61e	-0.09220527
188	0x3e093535	0.13399203
189	0x3e8d2a7d	0.27571478
190	0xbd9bab1f	-0.07600998
191	0xbbb31e32	-0.005466246
192	0xbf01ceff	-0.50706476
193	0xbec1e48f	-0.3786969
194	0x3d6ff3aa	0.058581986
195	0x3de325dc	0.110912055
196	0xbc6cc85c	-0.014452066
197	0xbf07adba	-0.5299946
198	0xbb2e8ad4	-0.002663304
199	0xbedd7bdf	-0.4325857
200	0x3e5a4676	0.21315941
201	0x3e8b77e4	0.27239907
202	0xbec57693	-0.38567027
203	0xbec187b3	-0.37798843
204	0xbc9d2044	-0.019180425
205	0xbd3fb14e	-0.04679995
206	0xbdf8c01b	-0.12146016
207	0x3ec943a7	0.39309427
208	0x3e26d0d7	0.16290604
209	0xbdae959c	-0.085246295
210	0xbc25d7eb	-0.01012228
211	0xbddad376	-0.10684864
212	0x3d623c67	0.055233385
213	0xbdc05326	-0.09390859
214	0x3cb3aa39	0.021931754
215	0xbdd7a81e	-0.10530113
216	0x3df0918f	0.11746513
217	0xbd89249c	-0.06696436
218	0x3ddbaf3e	0.10726784
219	0xbbb480a9	-0.0055085015
220	0x3e54dae8	0.20786631
221	0xbee0436e	-0.43801445
222	0x3c2cb6a2	0.01054159
223	0x3d19204a	0.03738431
224	0x3e4482ad	0.19190474
225	0xbe4015ce	-0.18758318
226	0x3dff36df	0.12461638
227	0xbe9824cd	-0.29715577
228	0x3af66b71	0.001880033
229	0xbd6e3772	-0.058158346
230	0x3b9a4850	0.0047083274
231	0xbe8a96c3	-0.27068147
232	0xbed31967	-0.41230318
233	0x3e81c225	0.25343433
234	0x3d0fa6de	0.035071246
235	0xbc1093d5	-0.008824308
236	0x3e03f4b3	0.12886314
237	0xbd850a59	-0.06496114
238	0xbe2dbb66	-0.16966018
239	0x3c811d19	0.015760945
240	0x3e8e4053	0.2778345
241	0xbe5bb689	-0.2145635
242	0x3ea3541e	0.31900114
243	0xbe2c5c93	-0.1683219
244	0xbd8927b7	-0.06697028
245	0x3dd12bbc	0.1021342
246	0xbd60c6b2	-0.05487699
247	0xbef78714	-0.48345244
248	0xbd1696b9	-0.036764834
249	0xbdf210b0	-0.11819589
250	0xbe76d3c1	-0.24104215
251	0x3e909c20	0.28244114
252	0xbe24f7d2	-0.16110161
253	0x3e8e1010	0.2774663
254	0xbd34ca0f	-0.04413801
255	0x3f32562e	0.6966275

linear2.bias f4 [3]
0	0x3e2870fa	0.16449347
1	0xbd86ce1b	-0.0658228
2	0xbdf838bc	-0.12120196
