model/mode.pth (torch, 16781 bytes, 4 tensors)

linear1.weight f4 [256, 11]
0	0xbd5dfddd	-0.05419718
1	0xbe6c3879	-0.23068418
2	0x3db21d4a	0.08696993
3	0x3e9031ad	0.281629
4	0xbeae3cea	-0.3403085
5	0xbf07131c	-0.52763534
6	0x3f023423	0.50860804
7	0x3e5b2782	0.2140179
8	0xbf12cadc	-0.5734079
9	0x3d68a270	0.056795537
10	0xbda8b9ed	-0.082385875
11	0x3e60d214	0.21955138
12	0xbedc9943	-0.4308568
13	0x3e166783	0.14687924
14	0x3e4d33a1	0.20039226
15	0x3e726983	0.23673062
16	0xbdce15c0	-0.10062742
17	0xbe8d7130	-0.27625418
18	0xbe6c1ce5	-0.23057897
19	0xbe334530	-0.17506862
20	0x3e61ee7e	0.22063634
21	0x3edf598c	0.43623006
22	0xbec56406	-0.38552874
23	0x3e72fd5d	0.23729463
24	0x3e470037	0.19433676
25	0x3e1a2a2d	0.15055151
26	0xbe63c181	-0.22241785
27	0xbe76c345	-0.24097927
28	0xbc48d4bd	-0.012257752
29	0xbd8ffc38	-0.07030529
30	0x3b336b28	0.0027377103
31	0x3e1838e9	0.1486546
32	0x3e97c3b1	0.29641488
33	0xbd59cf4e	-0.053176217
34	0xbe516c34	-0.20451432
35	0xbea62998	-0.3245361
36	0x3e605527	0.21907483
37	0xbe1575a5	-0.14595659
38	0x3edb433e	0.4282474
39	0x3e65394a	0.22385135
40	0xbe8634fb	-0.26212296
41	0xbf21efa1	-0.6325627
42	0x3da8c21e	0.0824015
43	0xbe6359f9	-0.2220229
44	0x3e26b90a	0.16281524
45	0x3e6b5545	0.22981746
46	0x3eebf60d	0.4608616
47	0x3d9bebfd	0.076133706
48	0x3ca9805c	0.02069109
49	0xbd0f15d5	-0.03493293
50	0xbd1a96f0	-0.0377416
51	0xbd2554be	-0.04036402
52	0x3d1353ba	0.03596852
53	0x3eb95d57	0.36204025
54	0x3db7fd0c	0.08983812
55	0xbe39fa54	-0.18161899
56	0xbd8c92f0	-0.068639636
57	0xbe8acd57	-0.27109787
58	0x3e89231f	0.26784608
59	0xbe9dba40	-0.3080616
60	0x3e73f863	0.23825221
61	0xbea7dce4	-0.32785714
62	0x3c4471f8	0.011990063
63	0xbebfd9ea	-0.37470943
64	0x3e33802d	0.17529364
65	0xbec29ab6	-0.3800866
66	0xbef2eea6	-0.474477
67	0x3d35decc	0.04440193
68	0x3df35686	0.118817374
69	0x3e61a220	0.22034502
70	0xbedd698b	-0.43244585
71	0x3e10d517	0.14143787
72	0x3f0e7cfa	0.5565945
73	0xbea7468a	-0.32671005
74	0x3e5f7284	0.21821028
75	0xbe52be4c	-0.20580405
76	0xbf248de6	-0.6427902
77	0xbda5bc15	-0.080925144
78	0x3e156804	0.1459046
79	0x3e8dbde3	0.27683935
80	0x3c85ae24	0.016318388
81	0xbe4a82d9	-0.19776477
82	0xbdcd4e2e	-0.10024677
83	0x3cc3efcd	0.023918057
84	0x3d9492d6	0.07254569
85	0xbdc4695c	-0.09590408
86	0x3ce8dc2b	0.028425297
87	0xbde24e43	-0.110500835
88	0x3ee458c1	0.44598964
89	0x3eba329e	0.36366743
90	0x3de67b46	0.11253981
91	0x3e7bf9c0	0.24606991
92	0xbdfa47b5	-0.12220708
93	0x3e5c1130	0.21490932
94	0x3a9ec9b9	0.0012114561
95	0xbd81c201	-0.063358314
96	0x3e91d5ca	0.2848342
97	0xbdd15f30	-0.10223234
98	0x3e7ab0d5	0.24481519
99	0x3e97b064	0.29626763
100	0x3e5c126b	0.21491401
101	0x3e6c99ba	0.23105517
102	0xbefb8ca9	-0.49130753
103	0xbea8a408	-0.32937646
104	0x3e8ffa7f	0.281208
105	0x3e4c1476	0.1992968
106	0x3c97912e	0.018501844
107	0x3e617fb2	0.22021368
108	0xbecc22d8	-0.39870334
109	0xbdc3d87a	-0.09562774
110	0xbe2d78e8	-0.16940653
111	0x3d3c5ebd	0.045988787
112	0xbe711260	-0.23542166
113	0x3dbe7ed6	0.09301536
114	0xbdf942a3	-0.12170913
115	0x3e1d3728	0.15353072
116	0x3e0828b3	0.13296776
117	0xbe7722ae	-0.24134323
118	0x3ea251ee	0.31703132
119	0x38cd2ef0	9.7839045e-05
120	0xbe978957	-0.2959697
121	0xbbec20d0	-0.00720606
122	0x3e2b2d76	0.1671656
123	0x3eaf2f91	0.34215978
124	0x3e114de7	0.14189874
125	0x3dcbca88	0.09950739
126	0xbc73aa33	-0.014872122
127	0xbd90fbd1	-0.0707928
128	0x3ea87a9a	0.32906038
129	0x3ed16ad5	0.4090182
130	0x3e36ef6a	0.17864767
131	0x3eae7c42	0.34079176
132	0xbe0284b3	-0.12745933
133	0xbe0a5eb3	-0.13512687
134	0x3e7afe2c	0.24511021
135	0xbe2c5bf4	-0.16831952
136	0xbf1b288b	-0.6060874
137	0x3ecc8c4d	0.3995079
138	0x3f061fd1	0.523923
139	0xbeb76379	-0.3581808
140	0xbedafb02	-0.4276963
141	0x3ee4fa02	0.4472199
142	0x3ed0628a	0.4070018
143	0x3dd97239	0.10617489
144	0xbe80b66b	-0.25139174
145	0xbe78f193	-0.24310903
146	0xbe4c23fc	-0.19935602
147	0xbd257141	-0.04039121
148	0x3e1f4965	0.15555342
149	0xbf049a01	-0.5179749
150	0xbecb1d19	-0.39670637
151	0xbe93c52a	-0.28861362
152	0x3e6b3242	0.2296839
153	0xbedd8387	-0.4326441
154	0x3c3bda75	0.011465658
155	0x3ee2a8c3	0.4426938
156	0xbf301b6c	-0.6879184
157	0xbc866298	-0.016404435
158	0xbc223db7	-0.009902409
159	0x3d862532	0.06550063
160	0xbe1f4d16	-0.1555675
161	0x3d935d66	0.07195549
162	0xbbd04389	-0.006355707
163	0x3db69486	0.08915047
164	0xbe370dcc	-0.17876357
165	0xbe2af96f	-0.16696714
166	0xbde435bf	-0.11143064
167	0x3ddb02ec	0.10693917
168	0xbe51ac9b	-0.20476
169	0xbe50459e	-0.20339057
170	0xbe5cfd4f	-0.21581005
171	0x3d741e96	0.05959948
172	0x3d44d5ce	0.048055463
173	0x3d7ac7b6	0.061225615
174	0xbdea59a2	-0.11442877
175	0x3cc8be0e	0.024504688
176	0x3dfd7158	0.12375134
177	0xbe4b5e82	-0.1986027
178	0xbc1af57b	-0.009457941
179	0xbd194ca9	-0.037426624
180	0x3eb978b5	0.36224905
181	0x3e7906c1	0.24318983
182	0xbebb807d	-0.36621466
183	0x3e614e7e	0.22002599
184	0xbe2bdc0e	-0.16783163
185	0xbdddf9cb	-0.1083866
186	0x3f0bce5c	0.54611754
187	0x3e590c9b	0.21196215
188	0x3dc20c2f	0.0947498
189	0xbdf242bd	-0.118291356
190	0x3d552033	0.05203266
191	0xbf13549e	-0.5755099
192	0x3ec140ce	0.37744755
193	0x3e4f9378	0.20271099
194	0xbd97d7e8	-0.07414228
195	0x3ef4e15f	0.47828194
196	0xbf06180c	-0.5238044
197	0xbe8bdb19	-0.27315596
198	0x3eb310ba	0.349737
199	0x3e109ed2	0.14123085
200	0xbef67f47	-0.4814398
201	0xbdb339bc	-0.08751246
202	0xbe63f197	-0.22260128
203	0xbcccad9d	-0.024985129
204	0xbd96ba8c	-0.073598
205	0x3ec2e0a2	0.38062006
206	0x3efad982	0.4899407
207	0x3e30a957	0.17252098
208	0x3df09499	0.11747093
209	0x3e6f28b9	0.23355378
210	0x3e88716a	0.26649028
211	0xbf18c9bf	-0.5968284
212	0x3d67256e	0.05643218
213	0x3e29eeec	0.16595048
214	0xbf26fe2f	-0.65231603
215	0xbe9aef2b	-0.30260596
216	0xbe22b39b	-0.15888827
217	0xbec42189	-0.38306835
218	0x3ec595fe	0.38590997
219	0x3d3ef594	0.04662092
220	0x3e1a9ed1	0.15099646
221	0x3ef221eb	0.47291502
222	0x3c8ccc99	0.017187404
223	0xbe3db651	-0.1852658
224	0x3dfa03f1	0.12207783
225	0x3d8a211b	0.067445956
226	0xbe34ea39	-0.17667474
227	0x3ea8d3ae	0.32974
228	0x3d7d4dae	0.06184166
229	0x3eed4375	0.46340528
230	0x3eb30bf3	0.34970054
231	0xbe78793c	-0.24264997
232	0x3f047f40	0.5175667
233	0xbe976c92	-0.2957502
234	0xbe28df09	-0.16491331
235	0x3e469d36	0.19395909
236	0xbce69ead	-0.028151834
237	0xbee97483	-0.45596704
238	0xb9e1d9e9	-0.000430777
239	0xbd4a7835	-0.049431045
240	0xbc55238f	-0.013008966
241	0xbea250fd	-0.31702414
242	0x3e6c04ba	0.23048678
243	0x3cf77ac4	0.030209906
244	0x3eb3eb5a	0.35140496
245	0xbdaee77a	-0.085402444
246	0x3e30d702	0.17269519
247	0xbebb8148	-0.3662207
248	0xbd49d524	-0.049275532
249	0x3e9376c4	0.28801548
250	0xbda7947e	-0.081826195
251	0x3eb74c22	0.35800272
252	0x3e24b171	0.16083314
253	0x3e8b205b	0.27173123
254	0x3e1fcffd	0.15606685
255	0xbf3d4656	-0.7393545

linear1.bias f4 [256]
0	0x3d9ab667	0.07554322
1	0xbe135fe0	-0.14392042
2	0x3e831504	0.2560197
3	0x3f0e75fa	0.5564877
4	0xbd2fb870	-0.042900503
5	0x3dd5ffc5	0.10449175
6	0xbc0de2ae	-0.008660002
7	0xbede3a6b	-0.43403944
8	0xbe736492	-0.23768833
9	0xbddabaf7	-0.10680192
10	0xbe69d6a2	-0.22835782
11	0xbeae401a	-0.3403328
12	0xbdd24596	-0.10267179
13	0x3ead317c	0.33826816
14	0x3d09a6f3	0.03360648
15	0xbe8d588f	-0.27606627
16	0xbe539447	-0.20662032
17	0x3e093b0e	0.13401434
18	0xbe7446ec	-0.2385518
19	0x3dc3ceba	0.09560914
20	0xbe6a331f	-0.22871064
21	0x3e3c00af	0.18359636
22	0xbe3afa72	-0.182596
23	0x3e79ebfc	0.24406427
24	0xbe5fb15e	-0.21845004
25	0x3c145cf8	0.009055369
26	0xbe2760a3	-0.16345458
27	0xbcda025b	-0.026612451
28	0xbc8c6d64	-0.017142005
29	0x3de466ff	0.111524574
30	0x3d9cec93	0.076623105
31	0xbe24d1be	-0.16095635
32	0x3ef9275c	0.4866284
33	0x3bf1f434	0.0073838476
34	0xbc3e3b90	-0.0116108805
35	0xbed1d775	-0.40984693
36	0xbe737b33	-0.23777466
37	0x3d82b4d0	0.063821435
38	0xbe84ace2	-0.2591315
39	0xbd669cd8	-0.05630192
40	0xbea27e1b	-0.31736836
41	0x3e02110a	0.12701812
42	0xbe4d4229	-0.2004477
43	0xbdd6f689	-0.104962416
44	0xbbc27ec3	-0.0059355213
45	0xbce5c6ce	-0.028048899
46	0x3ebecd68	0.37266088
47	0xbd8fd35c	-0.070227355
48	0xbe11794d	-0.14206429
49	0x3ea37fa8	0.3193333
50	0x3ccdbfed	0.025115931
51	0x3da1e0ce	0.07904206
52	0xbe955cc8	-0.2917235
53	0x3d41a4f4	0.047276452
54	0x3e39dfcf	0.18151782
55	0xbdfe9699	-0.12431068
56	0xbe8a4505	-0.27005783
57	0x3e80bd8f	0.25144622
58	0x3ed4ddc9	0.4157546
59	0xbc0ac352	-0.00846942
60	0xbdbe8306	-0.093023345
61	0xbd8cacde	-0.06868909
62	0x3ca204ac	0.019777618
63	0x3e024dec	0.12725037
64	0xbe77d60a	-0.24202743
65	0xbeb2df8c	-0.34936178
66	0xbdffdbba	-0.124930814
67	0xbdefd0c0	-0.11709738
68	0xbe51c69c	-0.2048592
69	0x3dfebc82	0.12438299
70	0xbebbccfc	-0.36679828
71	0x3e807191	0.25086644
72	0x3b693e7d	0.0035590224
73	0xbd0e9583	-0.034810554
74	0xbe849cc5	-0.25900856
75	0xbe3a0bb3	-0.18168525
76	0xbe906483	-0.28201684
77	0xbeca9110	-0.395638
78	0xbd9e4560	-0.07728076
79	0xbdea601b	-0.11444112
80	0xbe66f432	-0.2255409
81	0xbddc303e	-0.10751389
82	0xbeee12bc	-0.46498668
83	0x3da37b91	0.07982553
84	0xbe858dbb	-0.26084694
85	0xbea6372c	-0.32463968
86	0xbe27dcd5	-0.16392834
87	0xbe362004	-0.1778565
88	0xbdae78cd	-0.08519135
89	0xbeda892f	-0.42682788
90	0xbd9ed8b8	-0.077561796
91	0x3db9771d	0.09055922
92	0xbd250fd5	-0.0402983
93	0xbe5db3ab	-0.21650569
94	0x3e72279b	0.23647921
95	0x3e7dcf88	0.24786198
96	0xbe1632d5	-0.14667828
97	0xbdb65b6a	-0.089041546
98	0xbd26529a	-0.04060612
99	0xbe3ceafe	-0.18449017
100	0x3c803f8d	0.015655303
101	0xbad407d3	-0.0016176648
102	0xbd8199d5	-0.06328169
103	0xbe0f8631	-0.14016034
104	0x3e2b200c	0.16711444
105	0x3ed75ef7	0.4206464
106	0xbe6a98c2	-0.22909835
107	0xbd9811c6	-0.07425265
108	0x3b82e248	0.00399426
109	0x3daaa0b8	0.08331436
110	0xbe2cf9e4	-0.168922
111	0x3e85e4fc	0.26151264
112	0x3d91bfe1	0.07116676
113	0xbc8ed322	-0.01743466
114	0xbe4a9b6f	-0.19785856
115	0xbe87190e	-0.26386303
116	0xbea4f216	-0.32215947
117	0xbde182fe	-0.11011313
118	0xbe7cbced	-0.24681444
119	0xbeb15366	-0.3463394
120	0x3dca61ff	0.098819725
121	0xbe2bcc51	-0.1677716
122	0xbf095ebd	-0.53660184
123	0x3e2b7fa4	0.1674791
124	0x3eaa99c1	0.3332043
125	0xbe171140	-0.14752674
126	0xbd975969	-0.073901005
127	0x3e5f4bc1	0.21806242
128	0xbe4b465f	-0.19851063
129	0xbd59eb8d	-0.053203154
130	0xbea07e5d	-0.31346408
131	0xbe3d7bf5	-0.18504317
132	0x3e1ea0da	0.15491048
133	0xbddbfc08	-0.107414305
134	0x3c98e00a	0.018661518
135	0xbe8795f6	-0.264816
136	0xbe810bfc	-0.25204456
137	0xbe07fc54	-0.1327985
138	0xbe3eadf6	-0.18621048
139	0x3eca50bd	0.39514723
140	0x3ea61495	0.32437578
141	0x3eca7926	0.39545554
142	0xbe046655	-0.12929662
143	0xbdc4f350	-0.09616721
144	0x3d7fa51c	0.06241332
145	0xbd3e3644	-0.04643847
146	0xbebe5b60	-0.3717909
147	0x3c8a85c9	0.016909497
148	0xbe596061	-0.21228172
149	0x3e8d8176	0.27637833
150	0xbe06478e	-0.13113233
151	0xbeaf9482	-0.3429299
152	0xbdda9b7a	-0.10674186
153	0x3e320f85	0.17388733
154	0xbde6cb55	-0.11269251
155	0xbe826873	-0.25470313
156	0xbccc4797	-0.02493648
157	0xbea434b0	-0.32071447
158	0x3d5a7aa6	0.053339623
159	0x3d1a20ba	0.037628867
160	0xbeac2473	-0.3362156
161	0xbdc068f6	-0.0939502
162	0x3e00eb5b	0.12589781
163	0x3d40ca16	0.047067724
164	0x3e1e239b	0.1544327
165	0x3e41119d	0.18854375
166	0xbe876229	-0.26442078
167	0xbd3eed17	-0.046612825
168	0xbe5d8a30	-0.21634746
169	0xbe9fda75	-0.31221357
170	0xbe9fa17c	-0.3117789
171	0xbdfb1f60	-0.12261844
172	0xbeb0c080	-0.34521866
173	0xbdc955c0	-0.09830809
174	0xbe8d7883	-0.27631006
175	0xbe617846	-0.22018537
176	0xbe1f075c	-0.15530151
177	0xbd2019a1	-0.03908694
178	0xbe9016ab	-0.28142294
179	0xbe991638	-0.29899764
180	0x3d9e94ae	0.07743202
181	0xbeae3cb1	-0.3403068
182	0xbd9f84c2	-0.077889934
183	0x3d990df2	0.07473363
184	0xbe0d16af	-0.13778184
185	0x3e5393bc	0.20661825
186	0x3d8c0bd4	0.068381935
187	0x3e07c112	0.13257244
188	0xbe2840bd	-0.16430946
189	0xbe35e80f	-0.17764305
190	0xbe68d724	-0.2273832
191	0x3e2af1b2	0.16693762
192	0x3da55fad	0.08074889
193	0xbe2873df	-0.16450451
194	0xbea2c8e8	-0.31793904
195	0x3ee4760b	0.4462131
196	0xbe0ca5c3	-0.13735108
197	0xbe8b991b	-0.27265248
198	0x3ef78dd6	0.483504
199	0x3d8288e0	0.06373763
200	0x3e780cdb	0.24223654
201	0xbe848030	-0.2587905
202	0x3dd8924e	0.105747804
203	0xbe89a84d	-0.26886216
204	0xbe11e479	-0.14247312
205	0x3ea148e5	0.31500927
206	0xbe18a29b	-0.14905779
207	0xbe588dc9	-0.21147837
208	0xbcb38e9c	-0.021918587
209	0xbe8b89dc	-0.27253616
210	0xbe6d51f8	-0.231758
211	0xbed114ac	-0.40836084
212	0xbe0abee8	-0.13549387
213	0x3f58f4bc	0.84748435
214	0x3ce1e515	0.027575055
215	0xbe114c65	-0.14189298
216	0xbd3a015c	-0.045411453
217	0xbdee0366	-0.11621742
218	0x3dbc378a	0.09190281
219	0xbe3f4b9c	-0.18681186
220	0xbe88f424	-0.26748765
221	0xbe243add	-0.1603808
222	0x3ed5ffcf	0.4179673
223	0xbcc21668	-0.023692325
224	0xbdd5689f	-0.104203455
225	0x3f022a31	0.5084563
226	0x3e98e8e3	0.29865178
227	0xbbc9ddb7	-0.0061604637
228	0xbd7ba217	-0.061433878
229	0xbe3d4218	-0.18482244
230	0x3ed3b7cd	0.41351166
231	0xbe226d2a	-0.15861955
232	0xbeb3a6c4	-0.3508817
233	0xbe249cec	-0.16075486
234	0x3e0652dd	0.13117547
235	0xbe5d56c1	-0.21615125
236	0xbe8ab630	-0.27092123
237	0xbe545409	-0.20735182
238	0xbe673223	-0.2257772
239	0x3dabad67	0.08382683
240	0xbcb3e982	-0.021961931
241	0xbdc50eeb	-0.09621986
242	0xbdd04e22	-0.10171153
243	0xbed09661	-0.4073973
244	0x3e53515f	0.2063651
245	0x3cdff6ed	0.027339423
246	0x3e81705d	0.2528104
247	0xbc419d99	-0.011817359
248	0xbe1ce7bc	-0.15322775
249	0xbebdaa0d	-0.370438
250	0xbe10f082	-0.14154246
251	0x3d856e37	0.065151624
252	0xbde83725	-0.11338643
253	0xbcc3fbf7	-0.023923857
254	0x3dcb3331	0.09921873
255	0xbe9162f6	-0.28395814

linear2.weight f4 [3, 256]
0	0x3e7949a8	0.24344504
1	0xbee1e1f2	-0.44117695
2	0x3d8d894a	0.069109514
3	0x3ec31c14	0.3810736
4	0xbcb15b32	-0.02164993
5	0x3e4c9267	0.19977723
6	0xbee61501	-0.449379
7	0xbc870a38	-0.016484365
8	0xbe4e17e2	-0.20126298
9	0xbe794baa	-0.2434527
10	0xbe0955b0	-0.13411593
11	0xbdd75a45	-0.105152644
12	0x3efb03a3	0.49026212
13	0x3e79fe1b	0.2441334
14	0x3cb2d703	0.021831041
15	0xbd3c52b9	-0.045977328
16	0xbe94fdbd	-0.29099837
17	0xbf2ca683	-0.67441577
18	0xbee13b10	-0.43990374
19	0xbe22d62e	-0.15902016
20	0xbe46d872	-0.19418505
21	0x3e08337c	0.1330089
22	0xbdbbacb6	-0.09163801
23	0x3db980d5	0.09057776
24	0xbe820e64	-0.25401604
25	0xba867747	-0.0010258936
26	0xbed4ad86	-0.41538638
27	0x3ec16a83	0.37776574
28	0xbe55e45e	-0.20887896
29	0xbd6eb4f2	-0.05827803
30	0x3e7d92a9	0.24762978
31	0xbdb75d2f	-0.0895332
32	0x3e2c742e	0.16841194
33	0x3ec35515	0.3815085
34	0xbd794e1a	-0.0608655
35	0xbe139fd3	-0.14416437
36	0xbc65330d	-0.013989222
37	0x3d4b8cf6	0.049694978
38	0xbef57dda	-0.4794758
39	0x3e3fd95d	0.18735261
40	0xbe55716e	-0.20844051
41	0x3ee82856	0.45343274
42	0xbd825855	-0.06364504
43	0xbede589c	-0.4342698
44	0x3e672287	0.22571765
45	0xbf16d352	-0.589162
46	0x3edeb07b	0.4349402
47	0x3e79b292	0.24384525
48	0x3e15e7ac	0.14639157
49	0x3eb022b9	0.3440149
50	0xbe0f5c15	-0.1399997
51	0xbcf83af7	-0.030301554
52	0xbc0469d6	-0.008081874
53	0xbf02b4f0	-0.5105734
54	0x3e9815cf	0.2970414
55	0xbe1f4aae	-0.15555832
56	0xbe25644f	-0.16151546
57	0x3e1dd739	0.15414132
58	0x3edb77e5	0.4286491
59	0x3c84b87c	0.01620125
60	0x3d8dd4dd	0.06925366
61	0xbdd5c7e0	-0.10438514
62	0x3dbab093	0.0911571
63	0x3d4ca013	0.049957346
64	0xbedb0c26	-0.42782706
65	0xbebff498	-0.37491298
66	0xbf152e82	-0.5827409
67	0xbf07d7bb	-0.53063554
68	0xbda5b001	-0.08090211
69	0xbe8cd3e0	-0.27505398
70	0xbd95d6bf	-0.0731635
71	0x3ec93934	0.39301455
72	0x3e03a05b	0.1285414
73	0xbe4a2c5b	-0.19743483
74	0xbd416a6d	-0.047220636
75	0xbe9c0927	-0.30475733
76	0x3d2bf3e0	0.041980624
77	0xbe353575	-0.17696173
78	0xbf0da504	-0.5532992
79	0xbdd434e6	-0.10361652
80	0xbe033b36	-0.12815556
81	0xbe1cf9d6	-0.1532968
82	0xbaad40dd	-0.0013218183
83	0xbd70b84d	-0.058769513
84	0x3e1d4c53	0.15361147
85	0xbe347b44	-0.17625147
86	0xbe6c1938	-0.23056495
87	0xbcf680b9	-0.030090677
88	0xbd221455	-0.03957017
89	0xbd8708a0	-0.06593442
90	0xbeff7df3	-0.4990078
91	0x3e4a2840	0.19741917
92	0xbe861f8d	-0.26195946
93	0xbe871f07	-0.2639086
94	0x3e4688ed	0.1938817
95	0x3da0add4	0.07845655
96	0xbf0db9cc	-0.5536163
97	0xbc1679d5	-0.00918432
98	0x3ea32b55	0.31868997
99	0x3e1c4f0d	0.1526453
100	0xbd24c2f2	-0.040224977
101	0xbdd4d4e5	-0.10392169
102	0xbee54930	-0.447824
103	0xbde667c5	-0.11250261
104	0x3ee5eb89	0.44906262
105	0x3e57e46e	0.21083233
106	0xbe89e48b	-0.26932177
107	0xbe2e3a91	-0.17014529
108	0x3e58a4e6	0.21156654
109	0x3c51cb9e	0.012804894
110	0x3c39e2e0	0.011345595
111	0x3ee2ea5a	0.4431942
112	0x3ef4c89d	0.47809306
113	0xbeb1fe65	-0.347644
114	0xbd33df7a	-0.043914296
115	0xbd748b28	-0.059703022
116	0xbcbf6cb6	-0.023367267
117	0xbc479164	-0.01218066
118	0xbe0ce4bb	-0.13759129
119	0xbe63fe66	-0.22265014
120	0xbe30cfcc	-0.17266768
121	0xbde7c096	-0.1131603
122	0xbc51106b	-0.012760262
123	0x3d10243d	0.03519081
124	0x3e1c0f48	0.15240204
125	0xbe852665	-0.26005855
126	0x3db7f2b0	0.08981836
127	0x3e2b7ca5	0.16746767
128	0xbef2e88f	-0.47443053
129	0x3e7fbb2c	0.24973744
130	0x3cefb5c2	0.029261474
131	0x3c0d0985	0.008608227
132	0x3df887d0	0.12135279
133	0xbe32c5ea	-0.1745831
134	0x3e012ea7	0.12615453
135	0xbde8bf8c	-0.1136466
136	0xbe8361f9	-0.25660685
137	0x3e00cd8c	0.1257841
138	0xbe259201	-0.16168977
139	0x3e1c8b08	0.15287411
140	0x3d9a7eea	0.07543738
141	0x3eb17441	0.34659007
142	0x3d2c7b20	0.04210961
143	0xbe7292f1	-0.23688866
144	0x3e77d106	0.2420083
145	0x3e38bd44	0.18040949
146	0xbec6bd37	-0.38816234
147	0xbd2e8968	-0.04261151
148	0xbe3aa476	-0.182268
149	0x3db3a461	0.08771587
150	0xbea07cae	-0.31345123
151	0x3cd738e2	0.026272241
152	0x3ea567c2	0.32305723
153	0x3ee059cf	0.4381852
154	0xbe4479e8	-0.19187129
155	0xbdb60ba7	-0.08888941
156	0x3d9c534f	0.07633077
157	0xbdc0001e	-0.09375022
158	0xbe839952	-0.25702912
159	0xbf49b273	-0.78787917
160	0xbd89e9b2	-0.06734027
161	0x3ec71899	0.38885954
162	0x3e680566	0.2265831
163	0xbe830de2	-0.2559653
164	0x3e4264c2	0.18983749
165	0x3d7c9c41	0.061672453
166	0xbdec6d42	-0.11544277
167	0x3cd86871	0.026416989
168	0x3d04bfae	0.032409362
169	0xbe21b950	-0.15793347
170	0xbe10d07f	-0.14142035
171	0x3ed72cc6	0.42026347
172	0x3c0d4c72	0.008624183
173	0x3e6fec6e	0.23430035
174	0x3e0e4cee	0.13896534
175	0x3ac0ce98	0.0014710007
176	0x3dc7b9a4	0.09752205
177	0x3ec4ccd0	0.3843751
178	0xbee1cb44	-0.44100392
179	0xbd9ae9c9	-0.07564122
180	0xbcc92147	-0.024552
181	0xbd1b6911	-0.037941996
182	0x3bdd7459	0.0067582545
183	0x3e635959	0.22202052
184	0xbee09318	-0.43862224
185	0x3eda4f78	0.42638755
186	0x3d1302d7	0.03589138
187	0x3dedd13b	0.11612173
188	0xbe7ff4cb	-0.24995725
189	0x3c8e0847	0.017337931
190	0x3c870b34	0.016484834
191	0xbe8be763	-0.27324972
192	0x3e6030b5	0.2189358
193	0xbe3b61b9	-0.18298997
194	0xbebeae03	-0.37242135
195	0x3e4da739	0.20083322
196	0xbbffcaa6	-0.00780614
197	0xbe9392ec	-0.2882303
198	0x3eb08bcf	0.34481665
199	0x3b2dc32d	0.002651404
200	0x3ece7162	0.4032088
201	0xbd0acd3c	-0.033887133
202	0x3e04fb0d	0.12986393
203	0x3cae45c4	0.021273501
204	0xbe83a08f	-0.25708434
205	0x3ef79d51	0.4836221
206	0xbc848b23	-0.016179627
207	0x3cd2c7cc	0.025730036
208	0x3e82d138	0.25550246
209	0xbe4601bc	-0.19336599
210	0xbed3f0a8	-0.41394544
211	0xbd899f0e	-0.067197904
212	0x3e825f80	0.25463486
213	0x3e92af89	0.28649548
214	0xbdb8acab	-0.09017309
215	0xbca8a0e7	-0.020584537
216	0xbb173862	-0.0023074378
217	0x3b3ad993	0.0028511032
218	0x3ee453ff	0.44595334
219	0xbe54e328	-0.20789778
220	0xbd4093ed	-0.047016073
221	0x3cf5e4c5	0.030016312
222	0x3e4f7db8	0.20262802
223	0xbe768f4b	-0.240781
224	0x3e6b0489	0.22950949
225	0x3ecf1782	0.40447623
226	0x3e7d8054	0.24755985
227	0x3e4d32f1	0.20038964
228	0x3e76d893	0.24106054
229	0xbe79ae62	-0.24382928
230	0x3e39cbca	0.18144146
231	0xbdde63d8	-0.108588874
232	0xbdc56c42	-0.09639789
233	0xbe64d7dd	-0.2234797
234	0x3d995721	0.07487322
235	0xbc1df88a	-0.009641776
236	0xbd772d98	-0.060346216
237	0xbc025fbd	-0.007957396
238	0xbd464d29	-0.04841343
239	0x3e020398	0.12696683
240	0xbdd2f8fb	-0.103013955
241	0xbf064d94	-0.52462125
242	0xbd74d2c4	-0.059771314
243	0xbe7dabb2	-0.24772528
244	0x3e6ec5a7	0.23317586
245	0x3e4d61bf	0.20056818
246	0x3d9f4e5c	0.07778618
247	0x3d5a71ef	0.05333131
248	0x3dafa00f	0.08575451
249	0xbe6041a8	-0.21900046
250	0xbc6481c4	-0.013946954
251	0xbecb7252	-0.39735657
252	0xbd8f692a	-0.0700248
253	0xbf11caf9	-0.56950337
254	0xbe6acfbe	-0.2293081
255	0xbf2c5d03	-0.67329425

linear2.bias f4 [3]
0	0x3e5c7fb8	0.21533096
1	0x3c9ee17e	0.019394632
2	0xbc87aed4	-0.016562857
